mediapipe_libtorch/src/mediapipe_libtorch/face_detector.pt (torch, 426503 bytes, 74 tensors)

backbone1.0.weight f4 [24, 3, 5, 5]
000000 00 e0 3c 3d 00 80 fb 3c 00 60 78 3a 00 60 43 3c
       0.04611206 0.030700684 0.00094747543 0.011924744
000010 00 80 e3 3c 00 a0 b6 3c 00 00 40 bc 00 c0 a3 bd
       0.027770996 0.02229309 -0.01171875 -0.079956055
000020 00 a0 7d bd 00 c0 1a bd 00 20 57 bc 00 60 b9 bd
       -0.061920166 -0.03778076 -0.013130188 -0.09051514
000030 00 00 d3 bd 00 e0 c3 bd 00 a0 4c bd 00 a0 8a bc
       -0.103027344 -0.09564209 -0.049957275 -0.016921997
000040 00 80 5a bd 00 00 6c bd 00 a0 77 bd 00 a0 93 bc
       -0.053344727 -0.057617188 -0.060455322 -0.01802063
000050 00 60 6c 3c 00 40 1f bc 00 80 7b bc 00 00 a5 bc
       0.014427185 -0.009719849 -0.015350342 -0.020141602
000060 00 80 27 bc 00 80 09 3d 00 a0 1f 3c 00 00 64 bc
       -0.010223389 0.033569336 0.009742737 -0.013916016
000070 00 a0 90 3b 00 a0 8a 3c 00 60 8b 3c 00 60 7e bb
       0.0044136047 0.016921997 0.01701355 -0.0038814545
000080 00 60 3a bd 00 00 bb bc 00 20 12 bc 00 20 7a 3a
       -0.04550171 -0.022827148 -0.008918762 0.00095415115
000090 00 a0 ce bc 00 40 86 bc 00 40 0e bc 00 60 6a 3c
       -0.025222778 -0.01638794 -0.008682251 0.014305115
0000a0 00 c0 58 3a 00 40 89 3b 00 60 9e 3c 00 c0 42 3c
       0.00082683563 0.0041885376 0.019332886 0.011886597
0000b0 00 20 02 3d 00 e0 0a 3c 00 60 e2 3b 00 80 11 3b
       0.0317688 0.008476257 0.0069084167 0.0022201538
0000c0 00 e0 28 3c 00 60 df 3c 00 60 2a 3a 00 a0 18 ba
       0.010307312 0.027267456 0.00064992905 -0.00058221817
0000d0 00 e0 64 bb 00 c0 72 3c 00 60 a4 3c 00 e0 0a ba
       -0.0034923553 0.014816284 0.020065308 -0.0005297661
0000e0 00 a0 02 3c 00 e0 3f bb 00 c0 95 3c 00 c0 9d 3c
       0.007972717 -0.0029277802 0.01828003 0.019256592
0000f0 00 e0 bf 3a 00 80 cc bb 00 e0 a6 3c 00 c0 9c 3c
       0.0014638901 -0.0062408447 0.020370483 0.019134521
000100 00 c0 df 3c 00 40 52 bc 00 20 0c 3a 00 00 ba 3c
       0.027313232 -0.012832642 0.00053453445 0.022705078
000110 00 e0 6d 3b 00 40 87 3c 00 00 8e bc 00 00 8f bc
       0.0036296844 0.01651001 -0.017333984 -0.017456055
000120 00 20 0e bb 00 e0 04 bc 00 00 56 3c 00 c0 4f bb
       -0.0021686554 -0.008110046 0.013061523 -0.0031700134
000130 00 e0 40 3d 00 a0 1d 3e 00 e0 05 3e 00 60 d6 3b
       0.047088623 0.15393066 0.1307373 0.006542206
000140 00 00 18 be 00 60 38 be 00 60 b6 3d 00 e0 1c 3e
       -0.1484375 -0.18005371 0.08905029 0.15319824
000150 00 c0 1a 3c 00 40 56 be 00 00 a0 be 00 e0 f2 bd
       0.00944519 -0.20922852 -0.3125 -0.11859131
000160 00 40 8f 3d 00 a0 5b 3d 00 60 7c bc 00 40 66 bd
       0.06994629 0.053619385 -0.015403748 -0.05621338
000170 00 e0 00 be 00 40 2b bd 00 a0 10 3d 00 00 93 3d
       -0.12585449 -0.041809082 0.035308838 0.071777344
000180 00 60 a8 3d 00 20 48 3c 00 20 f3 3c 00 e0 86 3d
       0.082214355 0.012214661 0.029678345 0.06585693
000190 00 40 c3 3b 00 a0 ab bd 00 40 bb bb 00 c0 57 bb
       0.005958557 -0.08380127 -0.0057144165 -0.0032920837
0001a0 00 a0 fb bc 00 40 fb bb 00 00 36 be 00 e0 2e bd
       -0.030715942 -0.0076675415 -0.17773438 -0.04269409
0001b0 00 60 22 3d 00 a0 e8 bc 00 c0 2f 3d 00 e0 4d bd
       0.039642334 -0.028396606 0.042907715 -0.05026245
0001c0 00 a0 aa bd 00 e0 4b bc 00 a0 2a bb 00 c0 82 3d
       -0.08331299 -0.0124435425 -0.002603531 0.06384277
0001d0 00 40 03 3e 00 a0 62 bc 00 60 59 bd 00 60 42 bc
       0.12817383 -0.013832092 -0.05307007 -0.0118637085
0001e0 00 a0 b2 3c 00 a0 8e 3d 00 c0 9b bb 00 60 50 3a
       0.02180481 0.06964111 -0.004753113 0.00079488754
0001f0 00 e0 57 3c 00 40 aa 3d 00 00 b1 bd 00 60 ef bd
       0.013175964 0.08312988 -0.08642578 -0.116882324
000200 00 e0 a6 bd 00 a0 3e bd 00 20 14 3e 00 c0 f6 bb
       -0.08148193 -0.046539307 0.14465332 -0.0075302124
000210 00 20 35 bd 00 00 43 bd 00 60 ac bd 00 60 3c 3e
       -0.04421997 -0.047607422 -0.08416748 0.18395996
000220 00 c0 13 3e 00 a0 c6 3b 00 80 fc bc 00 a0 3a bd
       0.14428711 0.006061554 -0.030822754 -0.045562744
000230 00 40 71 3d 00 c0 5b 3e 00 a0 ad 3d 00 60 7d bc
       0.058898926 0.21459961 0.08477783 -0.015464783
000240 00 40 02 bd 00 80 a8 bd 00 20 50 3c 00 20 e7 bc
       -0.031799316 -0.08227539 0.012702942 -0.028213501
000250 00 40 00 bc 00 00 42 3c 00 c0 2b be 00 20 13 be
       -0.007827759 0.01184082 -0.16772461 -0.14367676
000260 00 00 f4 bd 00 c0 ef bd 00 c0 b1 bd 00 e0 14 3d
       -0.119140625 -0.11706543 -0.08679199 0.036346436
000270 00 a0 4a 3e 00 40 38 3e 00 40 c1 bc 00 60 25 be
       0.19787598 0.17993164 -0.023590088 -0.16149902
000280 00 c0 25 3e 00 00 ba 3e 00 20 a4 3e 00 80 30 bc
       0.16186523 0.36328125 0.32055664 -0.010772705
000290 00 60 76 be 00 80 a4 3d 00 c0 5e 3e 00 a0 4c 3e
       -0.24060059 0.080322266 0.2175293 0.1998291
0002a0 00 80 58 bd 00 c0 41 be 00 60 00 bc 00 00 73 3d
       -0.052856445 -0.18920898 -0.007835388 0.059326172
0002b0 00 00 5c 3d 00 40 49 bd 00 60 be bd 00 a0 37 3d
       0.053710938 -0.0491333 -0.09295654 0.044830322
0002c0 00 20 d3 3d 00 c0 c9 3d 00 80 21 3e 00 e0 54 3e
       0.10308838 0.09851074 0.15771484 0.20788574
0002d0 00 20 15 be 00 80 70 be 00 60 36 be 00 00 2a 3c
       -0.14562988 -0.23486328 -0.17810059 0.010375977
0002e0 00 a0 2d 3e 00 80 82 be 00 c0 06 bf 00 40 bc be
       0.16955566 -0.2548828 -0.5263672 -0.36767578
0002f0 00 00 7b bd 00 80 37 3e 00 40 47 be 00 00 bc be
       -0.061279297 0.17919922 -0.19458008 -0.3671875
000300 00 00 92 be 00 80 04 bd 00 00 49 3e 00 40 e7 bd
       -0.28515625 -0.032348633 0.19628906 -0.11291504
000310 00 e0 d8 bd 00 40 d2 bd 00 80 1f bb 00 40 d8 3d
       -0.105895996 -0.10266113 -0.0024337769 0.10559082
000320 00 60 d8 3d 00 a0 f3 3d 00 00 6c 3c 00 00 10 bd
       0.105651855 0.11895752 0.014404297 -0.03515625
000330 00 60 d4 bd 00 80 04 3e 00 40 5d 3c 00 c0 03 bd
       -0.10369873 0.12939453 0.013504028 -0.032165527
000340 00 c0 59 bb 00 60 50 3c 00 40 ea 3d 00 00 9d bd
       -0.0033226013 0.012718201 0.11437988 -0.076660156
000350 00 20 8f bd 00 80 3c 3d 00 e0 8f 3d 00 60 1a 3e
       -0.069885254 0.046020508 0.070251465 0.15075684
000360 00 20 00 3d 00 40 37 3d 00 a0 b0 3d 00 60 de 3c
       0.031280518 0.04473877 0.086242676 0.027145386
000370 00 e0 8f 3d 00 60 b9 3d 00 20 9b 3d 00 00 4a 3d
       0.070251465 0.09051514 0.07574463 0.049316406
000380 00 e0 07 bd 00 c0 82 3d 00 e0 8e 3d 00 20 ef 3c
       -0.033172607 0.06384277 0.06976318 0.029190063
000390 00 20 52 bd 00 a0 c4 bd 00 80 81 3d 00 c0 6f 3d
       -0.05130005 -0.0960083 0.06323242 0.058532715
0003a0 00 60 1c 3d 00 20 31 bd 00 c0 94 bd 00 40 16 3d
       0.03817749 -0.04324341 -0.072631836 0.03668213
0003b0 00 80 cd 3c 00 c0 c3 bc 00 40 83 bd 00 a0 47 bd
       0.02508545 -0.023895264 -0.064086914 -0.048736572
0003c0 00 c0 0d 3c 00 60 e3 ba 00 00 a7 bb 00 20 b9 3c
       0.008651733 -0.0017347336 -0.0050964355 0.022598267
0003d0 00 20 11 bd 00 60 02 3c 00 e0 c4 3b 00 60 4f 3c
       -0.03543091 0.0079574585 0.006008148 0.0126571655
0003e0 00 00 9e 3c 00 e0 fc bc 00 c0 57 3d 00 c0 80 3d
       0.01928711 -0.03086853 0.05267334 0.06286621
0003f0 00 60 2d 3c 00 80 a9 bd 00 c0 f8 bd 00 20 98 3d
       0.01058197 -0.08276367 -0.12145996 0.074279785

backbone1.0.bias f4 [24]
000000 00 20 b5 3d 00 20 12 3e 00 00 a1 3e 00 20 ca 3d
       0.08843994 0.1427002 0.31445312 0.09869385
000010 00 e0 7d bf 00 e0 6d 3e 00 e0 1d 3e 00 c0 e1 bd
       -0.9916992 0.2322998 0.1541748 -0.11022949
000020 00 c0 16 bc 00 60 88 bf 00 20 13 3e 00 a0 ff 3e
       -0.00920105 -1.0654297 0.14367676 0.49926758
000030 00 20 80 3f 00 e0 9e bd 00 00 fa bc 00 20 73 3e
       1.0009766 -0.07757568 -0.030517578 0.23742676
000040 00 00 8a 3e 00 40 74 3d 00 60 30 be 00 a0 c7 3e
       0.26953125 0.059631348 -0.17224121 0.38989258
000050 00 a0 e5 bc 00 c0 b6 bc 00 80 25 bf 00 c0 ac 3e
       -0.028030396 -0.02230835 -0.6464844 0.33740234

backbone1.2.convs.0.weight f4 [24, 1, 3, 3]
000000 00 e0 55 be 00 c0 54 bf 00 e0 80 bf 00 80 68 be
       -0.2088623 -0.8310547 -1.0068359 -0.22705078
000010 00 a0 f5 be 00 40 4b bf 00 60 0c 3f 00 60 a4 3e
       -0.47973633 -0.7939453 0.54833984 0.32104492
000020 00 80 36 bf 00 c0 cf 3e 00 20 ce bf 00 40 6f bf
       -0.7128906 0.40576172 -1.6103516 -0.9345703
000030 00 a0 26 3e 00 40 d1 3f 00 80 31 bf 00 00 e4 3d
       0.16271973 1.6347656 -0.6933594 0.111328125
000040 00 c0 0e 3f 00 e0 52 3e 00 80 74 3f 00 00 b0 bf
       0.5576172 0.20593262 0.9550781 -1.375
000050 00 a0 2d bf 00 e0 4c 3f 00 40 58 bf 00 80 04 bf
       -0.67822266 0.80029297 -0.84472656 -0.5175781
000060 00 20 47 bd 00 c0 79 3f 00 a0 0a 3f 00 60 4e 3d
       -0.048614502 0.97558594 0.5415039 0.05038452
000070 00 40 80 bd 00 80 aa be 00 40 18 c0 00 80 a8 bf
       -0.06262207 -0.3330078 -2.3789062 -1.3164062
000080 00 60 d1 3e 00 00 bf bf 00 80 13 bf 00 e0 60 3c
       0.40893555 -1.4921875 -0.5761719 0.013725281
000090 00 00 31 3b 00 00 84 3f 00 00 06 be 00 e0 89 3e
       0.0027008057 1.03125 -0.13085938 0.2692871
0000a0 00 e0 c4 3e 00 60 a9 3f 00 00 95 3c 00 a0 ac bf
       0.38452148 1.3232422 0.018188477 -1.3486328
0000b0 00 20 60 bf 00 20 07 be 00 60 09 3b 00 a0 11 3e
       -0.8754883 -0.13195801 0.0020961761 0.14221191
0000c0 00 a0 0b 40 00 40 0c c0 00 80 85 3d 00 c0 39 be
       2.1816406 -2.1914062 0.06518555 -0.18139648
0000d0 00 60 13 3e 00 00 b9 bd 00 c0 f2 3f 00 20 7e 3e
       0.1439209 -0.09033203 1.8964844 0.24816895
0000e0 00 20 99 be 00 c0 55 3f 00 c0 dc bf 00 00 84 bf
       -0.29907227 0.83496094 -1.7246094 -1.03125
0000f0 00 a0 da bd 00 40 a5 be 00 40 82 be 00 40 09 bf
       -0.10675049 -0.3227539 -0.25439453 -0.5361328
000100 00 80 0f 3c 00 40 d9 bd 00 20 26 c0 00 80 b5 3f
       0.008758545 -0.1060791 -2.5957031 1.4179688
000110 00 40 68 3f 00 e0 49 bf 00 20 12 bf 00 40 7a be
       0.90722656 -0.7885742 -0.5708008 -0.24438477
000120 00 60 ad 3d 00 40 37 40 00 20 73 3f 00 40 c3 bd
       0.08465576 2.8632812 0.94970703 -0.095336914
000130 00 a0 c9 3f 00 20 3d 3e 00 a0 00 be 00 e0 0b bd
       1.5751953 0.18469238 -0.12561035 -0.03414917
000140 00 80 27 3c 00 e0 bf 3e 00 40 25 3f 00 20 2d 3f
       0.010223389 0.37475586 0.6455078 0.67626953
000150 00 80 1d bf 00 20 85 c0 00 20 40 bf 00 e0 fb bd
       -0.6152344 -4.1601562 -0.7504883 -0.12298584
000160 00 20 ce be 00 80 42 be 00 e0 3f be 00 40 aa bf
       -0.4025879 -0.1899414 -0.18737793 -1.3300781
000170 00 e0 0c 3e 00 40 67 bf 00 60 bd bf 00 20 63 bd
       0.13757324 -0.9033203 -1.4794922 -0.05545044
000180 00 40 1e 3a 00 a0 2b bd 00 80 18 bd 00 e0 0a 3e
       0.00060367584 -0.041900635 -0.037231445 0.13562012
000190 00 c0 fd 3e 00 e0 88 3c 00 40 0c 3f 00 00 1a c0
       0.49560547 0.016708374 0.54785156 -2.40625
0001a0 00 e0 e2 3e 00 00 94 3c 00 40 cb 3e 00 20 45 3e
       0.44311523 0.018066406 0.39697266 0.19250488
0001b0 00 40 16 3f 00 20 8f bf 00 e0 3d 3f 00 60 5c be
       0.58691406 -1.1181641 0.7416992 -0.21520996
0001c0 00 80 25 c0 00 80 e3 3d 00 00 ec 3e 00 c0 08 3f
       -2.5859375 0.111083984 0.4609375 0.5341797
0001d0 00 80 32 3f 00 c0 26 3c 00 20 91 3f 00 20 36 be
       0.6972656 0.010177612 1.1337891 -0.17785645
0001e0 00 20 81 bd 00 e0 fd 3f 00 a0 ac 3e 00 60 df bd
       -0.06304932 1.9833984 0.3371582 -0.109069824
0001f0 00 60 2f be 00 c0 f7 bc 00 40 3a 3f 00 a0 88 3f
       -0.17126465 -0.03024292 0.72753906 1.0673828
000200 00 a0 39 bf 00 60 44 3f 00 c0 81 3e 00 40 d4 bf
       -0.72509766 0.76708984 0.25341797 -1.6582031
000210 00 80 5f bf 00 00 73 bf 00 80 44 be 00 00 12 3f
       -0.8730469 -0.94921875 -0.19189453 0.5703125
000220 00 a0 e5 be 00 80 73 bf 00 60 07 bf 00 20 db bf
       -0.44848633 -0.9511719 -0.5288086 -1.7119141
000230 00 80 d7 3d 00 e0 8a 3f 00 20 41 3f 00 80 18 3f
       0.10522461 1.0849609 0.75439453 0.5957031
000240 00 60 17 3f 00 60 f8 3f 00 c0 0b bf 00 20 26 3f
       0.5913086 1.9404297 -0.54589844 0.6489258
000250 00 a0 b4 3f 00 e0 0d 3e 00 00 49 bf 00 c0 bf be
       1.4111328 0.1385498 -0.78515625 -0.37451172
000260 00 c0 21 bf 00 20 f7 bd 00 80 b4 be 00 40 70 bf
       -0.63183594 -0.120666504 -0.35253906 -0.93847656
000270 00 20 2c 3f 00 a0 22 c0 00 a0 09 40 00 80 f1 bd
       0.6723633 -2.5410156 2.1503906 -0.11791992
000280 00 80 64 bf 00 80 30 bf 00 00 e1 3e 00 00 c5 bd
       -0.8925781 -0.6894531 0.43945312 -0.096191406
000290 00 e0 e4 3e 00 60 76 3e 00 80 c0 bf 00 c0 43 bf
       0.44702148 0.24060059 -1.5039062 -0.76464844
0002a0 00 60 1f bd 00 c0 6e bf 00 60 6c bf 00 60 8b be
       -0.038909912 -0.9326172 -0.92333984 -0.2722168
0002b0 00 c0 9f bf 00 a0 73 bf 00 20 ab 3e 00 60 a5 be
       -1.2480469 -0.95166016 0.33422852 -0.32299805
0002c0 00 40 2a bf 00 00 56 3f 00 e0 f5 3f 00 c0 53 3f
       -0.66503906 0.8359375 1.9208984 0.82714844
0002d0 00 60 76 3e 00 00 ec 3f 00 a0 93 3e 00 e0 d6 bd
       0.24060059 1.84375 0.28833008 -0.10491943
0002e0 00 60 da be 00 80 ad 3e 00 60 80 3e 00 60 94 3e
       -0.42651367 0.3388672 0.25073242 0.28979492
0002f0 00 60 31 3e 00 c0 4e be 00 e0 bb bf 00 a0 af be
       0.17321777 -0.2019043 -1.4677734 -0.34301758
000300 00 60 fa be 00 e0 40 c0 00 e0 93 be 00 40 7a 3e
       -0.48901367 -3.0136719 -0.28881836 0.24438477
000310 00 40 82 3c 00 c0 69 3d 00 40 26 be 00 60 f5 3e
       0.015899658 0.05706787 -0.16235352 0.47924805
000320 00 20 e3 be 00 20 0a bf 00 60 50 40 00 60 2d 3e
       -0.44360352 -0.5395508 3.2558594 0.16931152
000330 00 c0 61 be 00 c0 8d be 00 80 32 bf 00 c0 97 3e
       -0.22045898 -0.27685547 -0.6972656 0.29638672
000340 00 40 ac 3f 00 20 60 bf 00 60 d2 3e 00 60 0e c0
       1.3457031 -0.8754883 0.41088867 -2.2246094
000350 00 a0 04 bf 00 c0 20 3e 00 e0 3f 3d 00 60 e8 bc
       -0.5180664 0.15698242 0.046844482 -0.028366089

backbone1.2.convs.0.bias f4 [24]
000000 00 00 00 00 00 00 00 00 00 00 00 00 00 00 00 00
       0.0 0.0 0.0 0.0
000010 00 00 00 00 00 00 00 00 00 00 00 00 00 00 00 00
       0.0 0.0 0.0 0.0
000020 00 00 00 00 00 00 00 00 00 00 00 00 00 00 00 00
       0.0 0.0 0.0 0.0
000030 00 00 00 00 00 00 00 00 00 00 00 00 00 00 00 00
       0.0 0.0 0.0 0.0
000040 00 00 00 00 00 00 00 00 00 00 00 00 00 00 00 00
       0.0 0.0 0.0 0.0
000050 00 00 00 00 00 00 00 00 00 00 00 00 00 00 00 00
       0.0 0.0 0.0 0.0

backbone1.2.convs.1.weight f4 [24, 24, 1, 1]
000000 00 80 dc 3b 00 00 b0 3a 00 e0 cb be 00 60 51 3d
       0.006729126 0.0013427734 -0.39819336 0.051116943
000010 00 c0 ac 3d 00 e0 f7 3c 00 e0 e5 3d 00 40 00 3e
       0.084350586 0.030258179 0.11224365 0.12524414
000020 00 a0 77 3b 00 00 b9 bd 00 40 7a bc 00 20 d2 bc
       0.0037784576 -0.09033203 -0.015274048 -0.025650024
000030 00 a0 2e 3f 00 e0 39 bb 00 a0 df 3c 00 00 48 3d
       0.6821289 -0.0028362274 0.027297974 0.048828125
000040 00 20 51 bd 00 c0 04 3e 00 c0 48 bd 00 c0 87 bd
       -0.05105591 0.12963867 -0.04901123 -0.06628418
000050 00 a0 6c bc 00 20 a0 3b 00 c0 6b 3e 00 c0 3f bc
       -0.014442444 0.004886627 0.23022461 -0.011703491
000060 00 00 46 3e 00 20 9c 3d 00 60 57 3d 00 00 07 bd
       0.19335938 0.07623291 0.052581787 -0.032958984
000070 00 c0 39 3d 00 80 95 3e 00 c0 47 3e 00 c0 e9 3d
       0.04534912 0.2919922 0.19506836 0.11413574
000080 00 c0 1f be 00 80 87 bd 00 00 95 3d 00 00 82 be
       -0.15600586 -0.06616211 0.072753906 -0.25390625
000090 00 a0 f1 3d 00 60 22 be 00 00 23 3e 00 00 90 bd
       0.11798096 -0.15856934 0.15917969 -0.0703125
0000a0 00 40 dd ba 00 e0 41 3f 00 80 3e be 00 a0 3b be
       -0.0016880035 0.7573242 -0.18603516 -0.18322754
0000b0 00 00 0f bd 00 00 b5 3d 00 a0 c1 3d 00 80 6a bd
       -0.03491211 0.088378906 0.09454346 -0.057250977
0000c0 00 80 e6 3e 00 a0 86 3e 00 60 05 bf 00 a0 63 3d
       0.4501953 0.26293945 -0.5209961 0.05557251
0000d0 00 00 be bd 00 20 3f bd 00 e0 0c 3f 00 c0 bb bc
       -0.09277344 -0.046661377 0.55029297 -0.022918701
0000e0 00 80 1e bd 00 a0 8c bb 00 e0 dc 3d 00 80 33 bc
       -0.03869629 -0.0042915344 0.10784912 -0.010955811
0000f0 00 40 80 3e 00 20 10 be 00 e0 b2 3e 00 40 a0 bd
       0.25048828 -0.14074707 0.34936523 -0.07824707
000100 00 80 1a bf 00 e0 49 bd 00 40 25 bf 00 e0 01 3e
       -0.6035156 -0.04928589 -0.6455078 0.12683105
000110 00 a0 ed bd 00 20 16 3d 00 80 02 3f 00 40 3d 3c
       -0.11602783 0.03665161 0.5097656 0.011550903
000120 00 c0 0f 3e 00 e0 06 3e 00 60 d7 3c 00 80 a9 3e
       0.14038086 0.13171387 0.026290894 0.3310547
000130 00 20 c5 bd 00 00 53 bc 00 e0 ad 3c 00 40 f3 bd
       -0.09625244 -0.012878418 0.021224976 -0.118774414
000140 00 c0 0e be 00 80 01 3e 00 c0 e1 3d 00 20 d6 3d
       -0.1394043 0.12646484 0.11022949 0.10455322
000150 00 c0 af bd 00 60 20 bd 00 60 0e be 00 20 2f be
       -0.08581543 -0.039154053 -0.13903809 -0.17102051
000160 00 80 c1 bc 00 40 3d 3e 00 e0 1f bd 00 80 89 bd
       -0.023620605 0.18481445 -0.039031982 -0.06713867
000170 00 e0 bc 3d 00 a0 08 3e 00 80 27 3c 00 20 93 bd
       0.09222412 0.13342285 0.010223389 -0.07183838
000180 00 c0 39 be 00 c0 98 bd 00 a0 22 bf 00 c0 af 3d
       -0.18139648 -0.07458496 -0.6352539 0.08581543
000190 00 40 11 3d 00 a0 aa bd 00 40 38 3e 00 20 81 bc
       0.035461426 -0.08331299 0.17993164 -0.01576233
0001a0 00 80 34 3d 00 a0 b4 3e 00 60 7f 3d 00 20 cb 3d
       0.044067383 0.3527832 0.062347412 0.09918213
0001b0 00 60 27 3e 00 60 06 bf 00 e0 73 3d 00 a0 95 be
       0.16345215 -0.52490234 0.059539795 -0.29223633
0001c0 00 a0 fb be 00 c0 81 3e 00 60 bf 3e 00 80 b9 3e
       -0.49145508 0.25341797 0.3737793 0.3623047
0001d0 00 40 98 3d 00 c0 1e bc 00 c0 0f be 00 00 02 3b
       0.07434082 -0.009689331 -0.14038086 0.0019836426
0001e0 00 a0 66 3d 00 80 d4 3d 00 20 e3 bd 00 a0 b4 be
       0.05630493 0.103759766 -0.11090088 -0.3527832
0001f0 00 a0 4d be 00 e0 a9 bd 00 80 58 3d 00 a0 85 bc
       -0.20080566 -0.08294678 0.052856445 -0.016311646
000200 00 80 55 be 00 00 1d 3c 00 e0 26 3e 00 40 5a 3d
       -0.2084961 0.0095825195 0.16296387 0.05328369
000210 00 c0 4d bc 00 80 6a bd 00 00 05 3d 00 c0 a7 bc
       -0.012557983 -0.057250977 0.032470703 -0.020477295
000220 00 00 45 bc 00 e0 8c bd 00 c0 bd 3c 00 c0 47 bd
       -0.012023926 -0.06878662 0.023162842 -0.04876709
000230 00 40 b5 3d 00 60 7c 3e 00 a0 e8 bc 00 20 c0 3e
       0.08850098 0.24645996 -0.028396606 0.37524414
000240 00 e0 4b 3d 00 20 3e 3e 00 00 1d 3e 00 80 ac 3e
       0.04977417 0.18566895 0.15332031 0.33691406
000250 00 00 56 3e 00 c0 b1 bc 00 a0 74 3e 00 00 80 be
       0.20898438 -0.021697998 0.2388916 -0.25
000260 00 60 27 bd 00 60 a3 bd 00 a0 7f 3d 00 60 24 3d
       -0.040863037 -0.07977295 0.062408447 0.040130615
000270 00 a0 4e 3c 00 e0 a9 3c 00 80 84 3d 00 80 ad 3c
       0.012611389 0.020736694 0.064697266 0.0211792
000280 00 20 8f 3c 00 20 ab 3d 00 40 37 3d 00 60 8b 3a
       0.017471313 0.08355713 0.04473877 0.0010633469
000290 00 40 61 bc 00 a0 89 3c 00 80 ce bd 00 20 f1 bd
       -0.013748169 0.016799927 -0.10083008 -0.11773682
0002a0 00 00 b5 3c 00 60 bb 3c 00 00 6f 3c 00 c0 3c bc
       0.022094727 0.022872925 0.014587402 -0.011520386
0002b0 00 00 e8 bd 00 c0 91 3f 00 c0 d5 bd 00 c0 ba 3e
       -0.11328125 1.1386719 -0.10437012 0.3647461
0002c0 00 40 8e bc 00 c0 37 bd 00 60 04 3d 00 00 03 bc
       -0.017364502 -0.04486084 0.032318115 -0.0079956055
0002d0 00 e0 20 3a 00 e0 aa bc 00 20 d9 3d 00 a0 28 bd
       0.0006136894 -0.020858765 0.10601807 -0.041168213
0002e0 00 20 71 b9 00 80 e0 3c 00 00 15 bc 00 60 26 3d
       -0.00022995472 0.027404785 -0.009094238 0.040618896
0002f0 00 e0 87 bd 00 40 0c 3d 00 60 19 bc 00 a0 da bd
       -0.066345215 0.034240723 -0.009361267 -0.10675049
000300 00 20 2a 3d 00 a0 ac 3e 00 e0 24 3e 00 a0 64 bd
       0.041534424 0.3371582 0.16101074 -0.05581665
000310 00 c0 62 be 00 80 e2 bd 00 c0 18 3b 00 c0 a7 3d
       -0.22143555 -0.1105957 0.00233078 0.08190918
000320 00 60 01 bf 00 c0 a5 3d 00 e0 9a be 00 c0 8b bd
       -0.5053711 0.08093262 -0.30249023 -0.068237305
000330 00 a0 50 3e 00 20 55 bf 00 c0 9b be 00 00 c5 be
       0.20373535 -0.83251953 -0.30419922 -0.38476562
000340 00 00 18 bf 00 80 94 be 00 60 8a 3d 00 e0 f9 bd
       -0.59375 -0.29003906 0.06756592 -0.12200928
000350 00 a0 a5 3e 00 40 7f 3e 00 20 c2 be 00 c0 9b bd
       0.32348633 0.24926758 -0.3791504 -0.076049805
000360 00 80 a6 bc 00 60 f1 bc 00 c0 fd 3d 00 60 20 bc
       -0.020324707 -0.029464722 0.12390137 -0.009788513
000370 00 80 08 3e 00 20 9a bb 00 00 86 be 00 e0 88 3b
       0.13330078 -0.0047035217 -0.26171875 0.0041770935
000380 00 e0 97 bc 00 00 de bf 00 c0 19 bd 00 40 6f 3d
       -0.018539429 -1.734375 -0.03753662 0.058410645
000390 00 60 af bd 00 c0 15 3b 00 a0 14 bd 00 80 db 3d
       -0.085632324 0.0022850037 -0.0362854 0.107177734
0003a0 00 c0 da bd 00 e0 02 3d 00 40 7c bc 00 e0 a6 3d
       -0.10681152 0.031951904 -0.015396118 0.08148193
0003b0 00 a0 02 3d 00 80 14 3d 00 c0 9f 3f 00 80 e5 3c
       0.03189087 0.036254883 1.2480469 0.028015137
0003c0 00 60 31 bd 00 60 0e 3d 00 80 e5 3d 00 00 35 3e
       -0.043304443 0.03475952 0.11206055 0.17675781
0003d0 00 80 a7 3e 00 e0 86 3e 00 00 27 3f 00 60 f1 3d
       0.32714844 0.26342773 0.65234375 0.11785889
0003e0 00 c0 e3 3d 00 00 c0 bc 00 c0 3f 3e 00 00 09 3e
       0.111206055 -0.0234375 0.18725586 0.13378906
0003f0 00 60 02 3d 00 60 00 bd 00 20 00 3f 00 00 a9 3e
       0.031829834 -0.031341553 0.5004883 0.33007812

backbone1.2.convs.1.bias f4 [24]
000000 00 60 c3 be 00 20 df 3e 00 a0 8a 3f 00 a0 21 3f
       -0.3815918 0.43579102 1.0830078 0.63134766
000010 00 80 09 3f 00 20 78 3f 00 00 b6 3e 00 20 2f bd
       0.5371094 0.9692383 0.35546875 -0.042755127
000020 00 80 dc 3e 00 80 0d c0 00 a0 c7 bd 00 20 da 3d
       0.43066406 -2.2109375 -0.097473145 0.10650635
000030 00 00 fd 3e 00 20 c2 3e 00 40 e5 3e 00 40 97 3d
       0.49414062 0.3791504 0.4477539 0.07385254
000040 00 80 5a 3f 00 c0 4d 3e 00 00 6a 3f 00 40 b2 bd
       0.8535156 0.20092773 0.9140625 -0.08703613
000050 00 a0 82 be 00 20 74 bd 00 a0 96 3f 00 a0 4b 3f
       -0.25512695 -0.05960083 1.1767578 0.79541016

backbone1.3.convs.0.weight f4 [24, 1, 3, 3]
000000 00 20 41 bf 00 20 57 be 00 20 30 be 00 c0 90 3e
       -0.75439453 -0.21008301 -0.17199707 0.28271484
000010 00 80 8d 40 00 e0 39 3d 00 a0 34 3e 00 00 80 3f
       4.421875 0.04537964 0.1763916 1.0
000020 00 e0 14 3f 00 40 e9 be 00 00 c7 3e 00 e0 36 3f
       0.58154297 -0.4555664 0.38867188 0.71435547
000030 00 20 5d 3f 00 00 ff be 00 e0 f4 3f 00 20 35 3f
       0.86376953 -0.49804688 1.9130859 0.70751953
000040 00 c0 3d 3d 00 20 d3 3e 00 00 91 3e 00 00 4d be
       0.046325684 0.41235352 0.28320312 -0.20019531
000050 00 60 8f 3e 00 e0 2e bf 00 20 17 c0 00 e0 04 3f
       0.2800293 -0.68310547 -2.3613281 0.51904297
000060 00 e0 f3 3e 00 80 19 3e 00 00 a6 3e 00 e0 a8 3e
       0.47631836 0.14990234 0.32421875 0.32983398
000070 00 e0 8e bf 00 80 e4 bf 00 a0 b7 3f 00 a0 51 bf
       -1.1162109 -1.7851562 1.4345703 -0.81884766
000080 00 20 0e c0 00 c0 d8 be 00 00 a1 3f 00 60 93 be
       -2.2207031 -0.42333984 1.2578125 -0.2878418
000090 00 40 28 bf 00 60 82 bf 00 80 e2 bd 00 80 f6 3e
       -0.65722656 -1.0185547 -0.1105957 0.4814453
0000a0 00 80 9f 3f 00 a0 f2 be 00 60 c3 be 00 a0 ce 3f
       1.2460938 -0.47387695 -0.3815918 1.6142578
0000b0 00 00 f8 be 00 e0 82 3f 00 80 f7 3f 00 e0 b8 bd
       -0.484375 1.0224609 1.9335938 -0.090270996
0000c0 00 40 f5 3e 00 a0 39 be 00 80 b1 be 00 00 c4 bc
       0.4790039 -0.18127441 -0.3466797 -0.023925781
0000d0 00 e0 32 3e 00 80 85 3b 00 a0 1f bf 00 80 e2 3e
       0.17468262 0.0040740967 -0.62353516 0.4423828
0000e0 00 80 ae 3f 00 00 ad bf 00 20 08 3f 00 60 aa 3f
       1.3632812 -1.3515625 0.5317383 1.3310547
0000f0 00 60 0a bf 00 a0 88 be 00 40 88 3f 00 40 a9 3e
       -0.54052734 -0.2668457 1.0644531 0.3305664
000100 00 20 bc 3f 00 c0 5c 3f 00 c0 2f 3f 00 80 df 3f
       1.4697266 0.8623047 0.68652344 1.7460938
000110 00 20 54 3f 00 20 1b bd 00 60 e5 3e 00 80 bc 3e
       0.8286133 -0.037872314 0.44799805 0.36816406
000120 00 80 af be 00 e0 29 bf 00 c0 0d 3f 00 a0 08 3e
       -0.34277344 -0.6635742 0.55371094 0.13342285
000130 00 80 f4 bf 00 20 8f bd 00 40 0e 3f 00 60 a6 bf
       -1.9101562 -0.069885254 0.55566406 -1.2998047
000140 00 60 12 bf 00 e0 00 3e 00 c0 90 3f 00 40 34 3f
       -0.57177734 0.12585449 1.1308594 0.70410156
000150 00 c0 53 3f 00 60 b3 3f 00 a0 36 3e 00 a0 df be
       0.82714844 1.4013672 0.17834473 -0.43676758
000160 00 80 fc 3c 00 00 59 be 00 40 56 3f 00 c0 32 3f
       0.030822754 -0.21191406 0.83691406 0.6982422
000170 00 80 96 3e 00 20 c2 3e 00 20 21 3e 00 20 d0 3e
       0.2939453 0.3791504 0.15734863 0.40649414
000180 00 60 64 be 00 a0 bd 3f 00 a0 8b 3d 00 20 c5 be
       -0.22302246 1.4814453 0.06817627 -0.38500977
000190 00 e0 4b bf 00 c0 42 3e 00 c0 81 3f 00 00 40 bf
       -0.7963867 0.19018555 1.0136719 -0.75
0001a0 00 c0 e2 be 00 a0 96 3e 00 00 78 3f 00 a0 16 3f
       -0.4428711 0.29418945 0.96875 0.5883789
0001b0 00 e0 f2 be 00 c0 9a bf 00 80 b1 b9 00 e0 51 bd
       -0.47436523 -1.2089844 -0.00033855438 -0.051239014
0001c0 00 20 a8 3f 00 e0 6a 3e 00 a0 bc bd 00 80 1a 3f
       1.3134766 0.22937012 -0.09210205 0.6035156
0001d0 00 00 58 3e 00 80 9d 3f 00 60 50 3f 00 a0 df 3d
       0.2109375 1.2304688 0.81396484 0.109191895
0001e0 00 20 8e 3f 00 60 fe 3f 00 60 ed be 00 80 d9 be
       1.1103516 1.9873047 -0.46362305 -0.4248047
0001f0 00 00 06 3f 00 20 53 bd 00 40 80 3c 00 40 7f 3f
       0.5234375 -0.05154419 0.015655518 0.9970703
000200 00 20 80 ba 00 40 2a be 00 e0 59 c0 00 20 b1 3e
       -0.0009775162 -0.16625977 -3.4042969 0.34594727
000210 00 80 bb be 00 c0 8e 3f 00 80 f7 3e 00 00 19 3f
       -0.36621094 1.1152344 0.48339844 0.59765625
000220 00 80 45 3f 00 80 84 3c 00 e0 ac 3f 00 20 dc 3f
       0.7714844 0.016174316 1.3505859 1.7197266
000230 00 e0 4e be 00 e0 03 3d 00 20 3b be 00 00 84 bf
       -0.20202637 0.032196045 -0.18273926 -1.03125
000240 00 00 b8 be 00 c0 a4 bf 00 00 06 bf 00 a0 38 3f
       -0.359375 -1.2871094 -0.5234375 0.7211914
000250 00 e0 2a bf 00 a0 31 bf 00 60 01 3f 00 00 d3 3f
       -0.66748047 -0.69384766 0.5053711 1.6484375
000260 00 20 60 3f 00 20 15 3e 00 60 50 3f 00 c0 8a be
       0.8754883 0.14562988 0.81396484 -0.2709961
000270 00 a0 37 3f 00 60 8a bc 00 40 9c bf 00 80 81 be
       0.71728516 -0.01689148 -1.2207031 -0.2529297
000280 00 c0 fc bf 00 60 d9 bf 00 20 f4 3e 00 60 1a 3e
       -1.9746094 -1.6982422 0.47680664 0.15075684
000290 00 40 32 be 00 80 87 3e 00 80 7a bf 00 60 e2 be
       -0.17407227 0.26464844 -0.9785156 -0.44213867
0002a0 00 20 a9 be 00 60 53 bf 00 c0 e1 be 00 20 5a be
       -0.33032227 -0.8256836 -0.44091797 -0.2130127
0002b0 00 40 81 3f 00 a0 09 bf 00 c0 0b bf 00 40 ac 3f
       1.0097656 -0.53759766 -0.54589844 1.3457031
0002c0 00 a0 18 3f 00 60 3f 3e 00 20 f4 bd 00 00 d4 3d
       0.5961914 0.18688965 -0.11920166 0.103515625
0002d0 00 c0 8c 3e 00 e0 24 bf 00 a0 1c bf 00 40 84 3c
       0.27490234 -0.64404297 -0.6118164 0.016143799
0002e0 00 00 ed 3f 00 60 4d bf 00 40 5e 3f 00 20 67 3f
       1.8515625 -0.8022461 0.86816406 0.90283203
0002f0 00 80 82 be 00 e0 b3 3f 00 80 fb 3f 00 80 7d 3d
       -0.2548828 1.4052734 1.9648438 0.06188965
000300 00 e0 e3 3f 00 00 39 40 00 80 79 3f 00 20 47 bd
       1.7802734 2.890625 0.9746094 -0.048614502
000310 00 e0 91 3e 00 c0 9f bd 00 80 b2 3c 00 e0 67 bf
       0.2849121 -0.07800293 0.02178955 -0.9057617
000320 00 c0 3e bf 00 00 b4 3f 00 c0 f2 3f 00 20 dc 3e
       -0.7451172 1.40625 1.8964844 0.42993164
000330 00 20 6f be 00 40 1b bf 00 60 26 3e 00 40 be bf
       -0.23352051 -0.6064453 0.16247559 -1.4863281
000340 00 60 af 3f 00 20 af be 00 20 9e bf 00 40 c7 3f
       1.3701172 -0.34204102 -1.2353516 1.5566406
000350 00 40 61 bc 00 00 f5 bd 00 60 31 bd 00 60 14 be
       -0.013748169 -0.119628906 -0.043304443 -0.14489746

backbone1.3.convs.0.bias f4 [24]
000000 00 00 00 00 00 00 00 00 00 00 00 00 00 00 00 00
       0.0 0.0 0.0 0.0
000010 00 00 00 00 00 00 00 00 00 00 00 00 00 00 00 00
       0.0 0.0 0.0 0.0
000020 00 00 00 00 00 00 00 00 00 00 00 00 00 00 00 00
       0.0 0.0 0.0 0.0
000030 00 00 00 00 00 00 00 00 00 00 00 00 00 00 00 00
       0.0 0.0 0.0 0.0
000040 00 00 00 00 00 00 00 00 00 00 00 00 00 00 00 00
       0.0 0.0 0.0 0.0
000050 00 00 00 00 00 00 00 00 00 00 00 00 00 00 00 00
       0.0 0.0 0.0 0.0

backbone1.3.convs.1.weight f4 [28, 24, 1, 1]
000000 00 c0 34 be 00 60 16 3b 00 c0 84 3c 00 c0 d5 ba
       -0.17651367 0.0022945404 0.016204834 -0.0016307831
000010 00 00 d9 3c 00 60 dc bb 00 60 80 39 00 40 0b 3d
       0.026489258 -0.0067253113 0.00024485588 0.033996582
000020 00 00 50 bd 00 a0 bc bb 00 60 2c 3d 00 a0 76 bc
       -0.05078125 -0.005756378 0.04208374 -0.015052795
000030 00 60 a1 3a 00 80 6c 3c 00 20 5d be 00 40 08 bd
       0.0012311935 0.014434814 -0.21594238 -0.03326416
000040 00 a0 47 bd 00 e0 13 3d 00 a0 aa 3b 00 20 dc bc
       -0.048736572 0.036102295 0.005207062 -0.026870728
000050 00 80 c9 bb 00 40 0f be 00 e0 a7 bd 00 40 8d bc
       -0.006149292 -0.13989258 -0.081970215 -0.017242432
000060 00 00 2c bc 00 20 8b be 00 00 e3 ba 00 00 72 be
       -0.010498047 -0.27172852 -0.0017318726 -0.23632812
000070 00 e0 94 bd 00 60 9b bb 00 80 25 3e 00 40 ca bc
       -0.07269287 -0.0047416687 0.1616211 -0.02468872
000080 00 40 4d 3a 00 80 7b 3c 00 40 3f 3d 00 e0 17 3e
       0.0007829666 0.015350342 0.046691895 0.14831543
000090 00 40 e1 bb 00 20 98 bd 00 c0 0c 3c 00 80 f9 3c
       -0.0068740845 -0.074279785 0.008590698 0.030456543
0000a0 00 a0 93 bd 00 a0 d7 3b 00 60 05 bd 00 00 3e 3e
       -0.07208252 0.006580353 -0.032562256 0.18554688
0000b0 00 60 ef 3d 00 00 63 3d 00 e0 e5 bc 00 00 9c 3e
       0.116882324 0.055419922 -0.028060913 0.3046875
0000c0 00 60 97 be 00 20 73 3d 00 40 24 3e 00 e0 98 bc
       -0.2956543 0.05935669 0.16040039 -0.018661499
0000d0 00 c0 1f 3e 00 40 c1 3c 00 c0 49 3c 00 40 9f bd
       0.15600586 0.023590088 0.012313843 -0.07775879
0000e0 00 00 5e 3d 00 60 03 be 00 c0 8c 3d 00 a0 8f bb
       0.05419922 -0.1282959 0.068725586 -0.004383087
0000f0 00 80 91 bc 00 60 a0 bd 00 20 00 bd 00 60 d9 3c
       -0.01776123 -0.078308105 -0.031280518 0.026535034
000100 00 60 c6 3c 00 a0 4a 3d 00 00 4e be 00 c0 05 be
       0.024215698 0.049468994 -0.20117188 -0.13061523
000110 00 a0 f5 bc 00 a0 ec 3a 00 00 62 3a 00 40 0e bd
       -0.02998352 0.0018053055 0.0008621216 -0.034729004
000120 00 60 f8 3d 00 c0 92 bd 00 e0 6a 3e 00 a0 37 3d
       0.121276855 -0.07165527 0.22937012 0.044830322
000130 00 40 1e bc 00 20 68 bc 00 c0 aa bd 00 c0 cc bc
       -0.0096588135 -0.014167786 -0.08337402 -0.024993896
000140 00 60 64 bd 00 40 26 be 00 a0 02 bd 00 80 94 3a
       -0.055755615 -0.16235352 -0.03189087 0.0011329651
000150 00 00 1d 3d 00 00 bb bd 00 40 50 3c 00 00 ab ba
       0.038330078 -0.091308594 0.012710571 -0.0013046265
000160 00 e0 b1 3c 00 60 b0 bd 00 40 b0 3e 00 60 4c 3d
       0.021713257 -0.086120605 0.34423828 0.04989624
000170 00 20 d5 3d 00 a0 f2 3c 00 e0 c6 bc 00 e0 16 bc
       0.10406494 0.02961731 -0.024276733 -0.009208679
000180 00 20 84 be 00 40 bd 3c 00 60 16 be 00 00 41 3e
       -0.25805664 0.023101807 -0.14685059 0.18847656
000190 00 40 0f 3e 00 60 d5 bc 00 60 94 3e 00 c0 0b bb
       0.13989258 -0.026046753 0.28979492 -0.0021324158
0001a0 00 00 93 3e 00 a0 6c 3d 00 c0 9d be 00 80 61 3c
       0.28710938 0.057769775 -0.30810547 0.013763428
0001b0 00 c0 d7 3e 00 60 5d bd 00 60 b4 bb 00 c0 78 bd
       0.42138672 -0.05404663 -0.005504608 -0.06072998
0001c0 00 60 27 be 00 20 31 3e 00 60 90 be 00 e0 f8 bc
       -0.16345215 0.17297363 -0.28198242 -0.030380249
0001d0 00 60 3c be 00 60 47 bc 00 e0 4f bd 00 80 79 bd
       -0.18395996 -0.012168884 -0.050750732 -0.060913086
0001e0 00 a0 24 bd 00 00 82 bb 00 60 73 bd 00 c0 bc bd
       -0.04019165 -0.003967285 -0.059417725 -0.092163086
0001f0 00 80 43 3a 00 e0 38 be 00 40 40 3d 00 40 36 3d
       0.0007457733 -0.18054199 0.046936035 0.04449463
000200 00 00 23 3d 00 40 c8 bc 00 00 2d 3b 00 00 ec 3c
       0.039794922 -0.02444458 0.0026397705 0.028808594
000210 00 a0 6c bc 00 a0 82 3c 00 00 8b 3e 00 80 4d bd
       -0.014442444 0.015945435 0.27148438 -0.0501709
000220 00 40 13 bd 00 60 02 bd 00 40 29 bd 00 60 09 3d
       -0.035949707 -0.031829834 -0.0413208 0.03353882
000230 00 a0 18 bd 00 20 65 bd 00 e0 ae 3b 00 60 97 bd
       -0.037261963 -0.05593872 0.0053367615 -0.073913574
000240 00 60 3b bc 00 00 32 bd 00 e0 91 bd 00 60 60 be
       -0.011436462 -0.04345703 -0.07122803 -0.21911621
000250 00 c0 88 bd 00 20 c8 bd 00 80 2e be 00 40 79 ba
       -0.06677246 -0.097717285 -0.17041016 -0.0009508133
000260 00 80 ee bc 00 00 15 bd 00 00 08 3d 00 40 c6 3b
       -0.02911377 -0.036376953 0.033203125 0.00605011
000270 00 20 eb bc 00 40 cb 3d 00 c0 8a bc 00 40 04 be
       -0.028701782 0.099243164 -0.016937256 -0.12915039
000280 00 00 38 3c 00 a0 12 3d 00 c0 6f bc 00 60 82 bd
       0.011230469 0.03579712 -0.014633179 -0.06365967
000290 00 40 b9 bd 00 e0 a1 bd 00 20 79 bc 00 60 0d 3c
       -0.0904541 -0.07904053 -0.015205383 0.008628845
0002a0 00 00 d6 3b 00 c0 87 3e 00 80 63 3d 00 40 b9 bd
       0.0065307617 0.26513672 0.055541992 -0.0904541
0002b0 00 60 89 be 00 40 1e bd 00 00 9e 3d 00 a0 53 be
       -0.26831055 -0.038635254 0.07714844 -0.20666504
0002c0 00 00 21 bd 00 c0 ce bc 00 c0 91 be 00 80 98 3c
       -0.03930664 -0.025238037 -0.28466797 0.018615723
0002d0 00 00 06 be 00 e0 48 bb 00 00 13 3e 00 40 c6 be
       -0.13085938 -0.0030651093 0.14355469 -0.38720703
0002e0 00 80 6f be 00 a0 57 3f 00 80 03 be 00 20 b1 bd
       -0.23388672 0.84228516 -0.12841797 -0.08648682
0002f0 00 a0 2f 3e 00 a0 86 3d 00 e0 15 3d 00 60 01 3d
       0.17150879 0.06573486 0.036590576 0.031585693
000300 00 40 d2 bc 00 20 fc bc 00 60 3b bc 00 e0 77 bd
       -0.025665283 -0.030776978 -0.011436462 -0.060516357
000310 00 20 67 3d 00 40 f5 bd 00 80 5f 3d 00 a0 60 bd
       0.056427002 -0.11975098 0.05456543 -0.054840088
000320 00 c0 93 3e 00 e0 5b bb 00 00 1d 3d 00 80 0e bd
       0.28857422 -0.0033550262 0.038330078 -0.03479004
000330 00 c0 b8 bd 00 20 a7 bd 00 c0 60 3e 00 a0 8e 3c
       -0.09020996 -0.081604004 0.21948242 0.017410278
000340 00 60 c1 3d 00 a0 95 bd 00 80 41 bd 00 a0 4f 3d
       0.09442139 -0.07305908 -0.04724121 0.050689697
000350 00 c0 13 3d 00 40 70 bd 00 40 1f 3e 00 00 1a 3d
       0.036071777 -0.058654785 0.15551758 0.037597656
000360 00 80 2d 3d 00 a0 2d bd 00 60 ce 3b 00 e0 aa bd
       0.0423584 -0.042388916 0.006298065 -0.08343506
000370 00 80 5c 3d 00 a0 13 be 00 60 a9 bd 00 40 08 bf
       0.053833008 -0.14416504 -0.08270264 -0.53222656
000380 00 c0 b7 bd 00 a0 84 be 00 60 49 3c 00 80 76 3d
       -0.08972168 -0.2590332 0.012290955 0.060180664
000390 00 e0 cb bc 00 20 95 bd 00 e0 d1 bc 00 00 47 3d
       -0.024887085 -0.07281494 -0.025619507 0.048583984
0003a0 00 20 fb bd 00 e0 1e 3c 00 40 cf bd 00 00 dc bd
       -0.12261963 0.00969696 -0.10119629 -0.107421875
0003b0 00 80 b8 3c 00 00 2d 3d 00 80 8f bd 00 a0 b9 3c
       0.022521973 0.042236328 -0.07006836 0.022659302
0003c0 00 a0 bc bb 00 c0 21 be 00 c0 86 3e 00 e0 83 3d
       -0.005756378 -0.15795898 0.2631836 0.06439209
0003d0 00 40 18 3e 00 a0 a8 3d 00 00 06 3d 00 60 8f bd
       0.14868164 0.082336426 0.032714844 -0.070007324
0003e0 00 80 31 3d 00 40 c1 bc 00 40 8c be 00 e0 1e bd
       0.04333496 -0.023590088 -0.27392578 -0.03878784
0003f0 00 c0 8f 3c 00 20 d7 3c 00 00 8d 3d 00 c0 34 bd
       0.017547607 0.026260376 0.068847656 -0.044128418

backbone1.3.convs.1.bias f4 [28]
000000 00 e0 87 3d 00 c0 b6 be 00 80 16 3e 00 a0 8c 3e
       0.066345215 -0.3569336 0.14697266 0.2746582
000010 00 a0 1e 3d 00 20 39 3f 00 60 3a 3c 00 60 e5 3f
       0.038726807 0.72314453 0.011375427 1.7919922
000020 00 20 57 3e 00 00 88 3f 00 00 9b 3e 00 20 90 3e
       0.21008301 1.0625 0.30273438 0.28149414
000030 00 60 7f 3f 00 e0 53 bf 00 c0 9a be 00 60 b3 be
       0.9975586 -0.8276367 -0.3022461 -0.3503418
000040 00 80 03 be 00 00 71 be 00 40 d8 3e 00 80 16 3f
       -0.12841797 -0.23535156 0.42236328 0.5878906
000050 00 00 c9 3e 00 00 4e 3c 00 00 49 3e 00 e0 a6 bf
       0.39257812 0.012573242 0.19628906 -1.3037109
000060 00 a0 e7 bd 00 20 78 bf 00 e0 66 bf 00 a0 10 3f
       -0.113098145 -0.9692383 -0.90185547 0.5649414

backbone1.4.convs.0.weight f4 [28, 1, 3, 3]
000000 00 40 91 3f 00 20 00 40 00 20 a9 3f 00 e0 c1 3f
       1.1347656 2.0019531 1.3212891 1.5146484
000010 00 60 26 40 00 00 d2 3f 00 20 43 3f 00 a0 a1 3f
       2.5996094 1.640625 0.76220703 1.2626953
000020 00 a0 28 3f 00 60 40 bf 00 00 8a bf 00 c0 29 bf
       0.6586914 -0.75146484 -1.078125 -0.66308594
000030 00 60 86 bf 00 00 f8 bf 00 e0 90 bf 00 00 33 bf
       -1.0498047 -1.9375 -1.1318359 -0.69921875
000040 00 60 8a bf 00 60 e4 be 00 40 1c bf 00 a0 a9 bf
       -1.0810547 -0.44604492 -0.61035156 -1.3251953
000050 00 e0 85 bf 00 20 35 3f 00 a0 cd 3e 00 e0 8b be
       -1.0458984 0.70751953 0.40161133 -0.27319336
000060 00 60 b5 3f 00 e0 b2 3f 00 20 e4 3e 00 20 66 3f
       1.4169922 1.3974609 0.44555664 0.8989258
000070 00 20 9f 3f 00 a0 2c 3f 00 20 05 3f 00 c0 d5 3f
       1.2431641 0.6743164 0.52001953 1.6699219
000080 00 60 95 3f 00 80 4d be 00 c0 1d 3e 00 80 2e 3f
       1.1669922 -0.2006836 0.15405273 0.6816406
000090 00 40 02 bf 00 80 07 bf 00 a0 bf be 00 a0 8d bf
       -0.50878906 -0.5292969 -0.37426758 -1.1064453
0000a0 00 00 87 bf 00 60 c2 be 00 20 4e bf 00 a0 88 bf
       -1.0546875 -0.37963867 -0.8051758 -1.0673828
0000b0 00 20 8a be 00 c0 88 bf 00 40 80 bf 00 00 a5 be
       -0.2697754 -1.0683594 -1.0019531 -0.32226562
0000c0 00 e0 a0 bf 00 a0 b7 bf 00 20 ac be 00 c0 0a bf
       -1.2568359 -1.4345703 -0.33618164 -0.5419922
0000d0 00 c0 42 bf 00 80 ff bd 00 40 56 3f 00 e0 ba 3f
       -0.7607422 -0.12475586 0.83691406 1.4599609
0000e0 00 20 a9 3e 00 80 07 3f 00 60 01 40 00 80 8e 3f
       0.33032227 0.5292969 2.0214844 1.1132812
0000f0 00 20 02 bf 00 20 84 3f 00 60 b9 3f 00 60 48 bf
       -0.5083008 1.0322266 1.4482422 -0.78271484
000100 00 00 d7 bc 00 60 05 3f 00 20 13 3d 00 80 36 3f
       -0.026245117 0.5209961 0.03591919 0.7128906
000110 00 00 5b 3f 00 40 e9 3e 00 80 58 3f 00 e0 82 3e
       0.85546875 0.4555664 0.8457031 0.25561523
000120 00 00 3c bf 00 20 c2 bf 00 80 6b bf 00 c0 8d bf
       -0.734375 -1.5166016 -0.9199219 -1.1074219
000130 00 a0 0a c0 00 c0 ce bf 00 a0 05 bf 00 c0 a4 bf
       -2.1660156 -1.6152344 -0.52197266 -1.2871094
000140 00 00 64 bf 00 40 a7 3f 00 c0 bd 3f 00 00 14 3f
       -0.890625 1.3066406 1.4824219 0.578125
000150 00 c0 52 3f 00 e0 6b 3f 00 e0 21 3f 00 60 9d be
       0.8232422 0.9213867 0.6323242 -0.30737305
000160 00 60 5a be 00 c0 e6 3d 00 20 11 bf 00 80 be bf
       -0.21325684 0.1126709 -0.56689453 -1.4882812
000170 00 20 8e bf 00 00 bd bf 00 60 1a c0 00 60 b3 bf
       -1.1103516 -1.4765625 -2.4121094 -1.4013672
000180 00 c0 a4 bf 00 80 bd bf 00 e0 e0 be 00 00 39 bf
       -1.2871094 -1.4804688 -0.43920898 -0.72265625
000190 00 00 4f bf 00 c0 8e be 00 60 29 bf 00 80 9f bf
       -0.80859375 -0.2788086 -0.6616211 -1.2460938
0001a0 00 e0 ed be 00 40 54 be 00 60 02 bf 00 00 8d be
       -0.4645996 -0.20727539 -0.50927734 -0.27539062
0001b0 00 20 76 be 00 e0 af be 00 e0 96 bd 00 20 55 bf
       -0.24035645 -0.34350586 -0.07366943 -0.83251953
0001c0 00 00 ae bf 00 a0 25 bf 00 00 25 bf 00 00 81 bf
       -1.359375 -0.64697266 -0.64453125 -1.0078125
0001d0 00 e0 e9 be 00 a0 02 c0 00 e0 09 c0 00 c0 7e bf
       -0.4567871 -2.0410156 -2.1542969 -0.9951172
0001e0 00 e0 02 c0 00 20 a7 bf 00 c0 e2 3c 00 40 17 3f
       -2.0449219 -1.3056641 0.027679443 0.5908203
0001f0 00 00 a3 3f 00 e0 8a 3f 00 60 bd be 00 c0 f2 bf
       1.2734375 1.0849609 -0.36987305 -1.8964844
000200 00 e0 e7 bf 00 80 5f 3f 00 80 0d 3f 00 80 c3 be
       -1.8115234 0.8730469 0.5527344 -0.38183594
000210 00 00 1a 3f 00 a0 ac 3f 00 40 30 3f 00 e0 a7 3f
       0.6015625 1.3486328 0.68847656 1.3115234
000220 00 c0 00 40 00 00 45 3f 00 e0 da 3f 00 60 1b 40
       2.0117188 0.76953125 1.7099609 2.4277344
000230 00 40 76 3f 00 40 53 3f 00 a0 0c 3f 00 20 15 3e
       0.96191406 0.8251953 0.5493164 0.14562988
000240 00 e0 bc bf 00 c0 f1 bf 00 40 34 bf 00 a0 94 bf
       -1.4755859 -1.8886719 -0.70410156 -1.1611328
000250 00 80 e8 bf 00 80 86 bf 00 80 45 3e 00 40 54 be
       -1.8164062 -1.0507812 0.1928711 -0.20727539
000260 00 80 f9 be 00 60 06 bf 00 e0 8e bf 00 20 2b bf
       -0.4873047 -0.52490234 -1.1162109 -0.66845703
000270 00 60 7c bf 00 40 be bf 00 60 34 bf 00 20 aa be
       -0.98583984 -1.4863281 -0.70458984 -0.3322754
000280 00 80 03 bf 00 00 c1 be 00 80 83 bf 00 80 6f bf
       -0.5136719 -0.37695312 -1.0273438 -0.9355469
000290 00 00 3d bf 00 60 55 bf 00 a0 22 bf 00 00 13 be
       -0.73828125 -0.8334961 -0.6352539 -0.14355469
0002a0 00 00 12 be 00 00 f5 3e 00 c0 19 3f 00 e0 b2 3f
       -0.14257812 0.47851562 0.60058594 1.3974609
0002b0 00 c0 92 3f 00 20 02 3e 00 80 d6 3f 00 c0 d9 3f
       1.1464844 0.1270752 1.6757812 1.7011719
0002c0 00 c0 c5 be 00 60 bf 3c 00 80 1b 3e 00 60 af be
       -0.38623047 0.023361206 0.15185547 -0.3425293
0002d0 00 20 ac 3f 00 20 6e 3f 00 60 af 3d 00 e0 0a 40
       1.3447266 0.9301758 0.085632324 2.1699219
0002e0 00 c0 c7 3f 00 00 17 be 00 00 60 3f 00 40 09 3f
       1.5605469 -0.14746094 0.875 0.5361328
0002f0 00 e0 55 be 00 c0 e6 be 00 80 68 bf 00 c0 44 bf
       -0.2088623 -0.4506836 -0.9082031 -0.7685547
000300 00 60 82 bf 00 a0 04 c0 00 00 ad bf 00 c0 8f bf
       -1.0185547 -2.0722656 -1.3515625 -1.1230469
000310 00 c0 bf bf 00 20 32 bf 00 c0 9c 3f 00 e0 dd 3f
       -1.4980469 -0.6958008 1.2246094 1.7333984
000320 00 60 3c 3f 00 a0 a2 3f 00 e0 f8 3f 00 e0 7b 3f
       0.73583984 1.2705078 1.9443359 0.9838867
000330 00 a0 f0 3e 00 40 5d 3f 00 00 c6 3e 00 c0 74 bf
       0.4699707 0.8642578 0.38671875 -0.9560547
000340 00 80 8e bf 00 c0 00 be 00 a0 7e bf 00 80 ae bf
       -1.1132812 -0.12573242 -0.9946289 -1.3632812
000350 00 e0 a1 be 00 c0 1e bd 00 20 99 bd 00 00 09 be
       -0.3161621 -0.038757324 -0.07476807 -0.13378906
000360 00 00 10 3f 00 c0 dd 3f 00 20 f3 3f 00 20 03 3f
       0.5625 1.7324219 1.8994141 0.51220703
000370 00 20 ea 3f 00 c0 e9 3f 00 c0 8f bd 00 00 ea 3e
       1.8291016 1.8261719 -0.07019043 0.45703125
000380 00 00 cb 3b 00 20 b0 bf 00 20 fb bf 00 c0 b6 bf
       0.0061950684 -1.3759766 -1.9619141 -1.4277344
000390 00 a0 70 bf 00 40 53 bf 00 40 97 bf 00 60 5b bf
       -0.9399414 -0.8251953 -1.1816406 -0.8569336
0003a0 00 20 a6 bf 00 40 a0 bf 00 c0 14 40 00 e0 ff 3f
       -1.2978516 -1.2519531 2.3242188 1.9990234
0003b0 00 20 16 bf 00 80 51 40 00 e0 33 40 00 80 bd 3e
       -0.5864258 3.2734375 2.8105469 0.3701172
0003c0 00 c0 38 40 00 60 00 40 00 60 fd 3e 00 c0 6b bf
       2.8867188 2.0058594 0.49487305 -0.92089844
0003d0 00 00 f1 be 00 60 66 3e 00 a0 ae bf 00 40 37 bf
       -0.47070312 0.22497559 -1.3642578 -0.7158203
0003e0 00 80 f0 3e 00 20 81 bf 00 20 9c bc 00 c0 11 3f
       0.46972656 -1.0087891 -0.019058228 0.56933594

backbone1.4.convs.0.bias f4 [28]
000000 00 00 00 00 00 00 00 00 00 00 00 00 00 00 00 00
       0.0 0.0 0.0 0.0
000010 00 00 00 00 00 00 00 00 00 00 00 00 00 00 00 00
       0.0 0.0 0.0 0.0
000020 00 00 00 00 00 00 00 00 00 00 00 00 00 00 00 00
       0.0 0.0 0.0 0.0
000030 00 00 00 00 00 00 00 00 00 00 00 00 00 00 00 00
       0.0 0.0 0.0 0.0
000040 00 00 00 00 00 00 00 00 00 00 00 00 00 00 00 00
       0.0 0.0 0.0 0.0
000050 00 00 00 00 00 00 00 00 00 00 00 00 00 00 00 00
       0.0 0.0 0.0 0.0
000060 00 00 00 00 00 00 00 00 00 00 00 00 00 00 00 00
       0.0 0.0 0.0 0.0

backbone1.4.convs.1.weight f4 [32, 28, 1, 1]
000000 00 e0 09 be 00 e0 5d bb 00 20 fd 3d 00 80 10 be
       -0.13464355 -0.0033855438 0.12359619 -0.14111328
000010 00 a0 b1 bb 00 60 7f 3e 00 40 0c bc 00 60 33 3e
       -0.005420685 0.24938965 -0.008560181 0.1751709
000020 00 80 11 be 00 20 6c bd 00 60 9f 3d 00 20 90 3c
       -0.14208984 -0.057647705 0.077819824 0.017593384
000030 00 a0 1f 3c 00 00 8e bd 00 c0 43 3d 00 20 e6 bd
       0.009742737 -0.06933594 0.047790527 -0.11236572
000040 00 60 95 3d 00 40 23 3c 00 60 50 3e 00 80 2f 3e
       0.07293701 0.009963989 0.20349121 0.17138672
000050 00 e0 6c bd 00 40 74 3b 00 a0 ab bc 00 40 85 3b
       -0.05783081 0.0037269592 -0.020950317 0.0040664673
000060 00 c0 d4 3d 00 40 f2 3c 00 80 f6 bd 00 40 8e bd
       0.103881836 0.029571533 -0.12036133 -0.06945801
000070 00 40 72 3d 00 60 ae bb 00 60 cb bd 00 c0 c3 bd
       0.059143066 -0.0053215027 -0.0993042 -0.095581055
000080 00 60 2e bd 00 60 81 bd 00 a0 cd 3d 00 60 fd bc
       -0.04257202 -0.06317139 0.10040283 -0.030929565
000090 00 20 eb 3d 00 40 c1 3d 00 60 9c 3d 00 c0 f0 bc
       0.11480713 0.09436035 0.07635498 -0.029388428
0000a0 00 e0 9a 3c 00 60 9b bd 00 c0 98 bd 00 80 93 bb
       0.01890564 -0.0758667 -0.07458496 -0.004501343
0000b0 00 80 5f 3e 00 00 39 3c 00 e0 0c 3d 00 80 c5 3d
       0.21826172 0.011291504 0.03439331 0.09643555
0000c0 00 20 d7 3b 00 20 80 3d 00 00 0f ba 00 40 14 3e
       0.006565094 0.062561035 -0.0005455017 0.14477539
0000d0 00 40 76 3d 00 80 a1 bc 00 40 87 be 00 00 c6 bd
       0.06011963 -0.019714355 -0.26416016 -0.09667969
0000e0 00 80 7b 3c 00 a0 3b bd 00 00 07 bd 00 60 47 3e
       0.015350342 -0.045806885 -0.032958984 0.19470215
0000f0 00 60 19 be 00 c0 9e bc 00 40 90 bd 00 80 97 ba
       -0.14978027 -0.019378662 -0.07043457 -0.0011558533
000100 00 20 d0 3c 00 e0 50 bd 00 40 02 3c 00 00 5a bd
       0.025405884 -0.050994873 0.007949829 -0.053222656
000110 00 c0 13 be 00 20 80 3d 00 e0 6a bd 00 40 75 3d
       -0.14428711 0.062561035 -0.05734253 0.05987549
000120 00 a0 8c bd 00 60 81 3d 00 80 04 3d 00 c0 1a bd
       -0.06866455 0.06317139 0.032348633 -0.03778076
000130 00 20 a1 3d 00 a0 72 3d 00 20 1e 39 00 c0 56 bd
       0.07867432 0.05923462 0.00015079975 -0.0524292
000140 00 60 6c bd 00 20 2b 3c 00 40 a6 bc 00 60 56 bd
       -0.05770874 0.010444641 -0.02029419 -0.052337646
000150 00 a0 d4 3c 00 20 87 bc 00 a0 65 bd 00 c0 16 3d
       0.0259552 -0.016494751 -0.05606079 0.0368042
000160 00 e0 b9 bd 00 a0 f0 bb 00 e0 ff bc 00 80 64 3c
       -0.09075928 -0.0073432922 -0.031234741 0.013946533
000170 00 00 da 3c 00 00 62 bd 00 40 0d bd 00 40 08 bc
       0.026611328 -0.05517578 -0.034484863 -0.00831604
000180 00 00 dc bd 00 80 96 bd 00 c0 f0 bc 00 c0 64 3d
       -0.107421875 -0.07348633 -0.029388428 0.055847168
000190 00 60 5f 3d 00 20 2f 3d 00 80 28 3d 00 20 7e bc
       0.054534912 0.042755127 0.041137695 -0.015510559
0001a0 00 00 1a bd 00 20 3a 3d 00 60 e1 bc 00 c0 96 3d
       -0.037597656 0.045440674 -0.027511597 0.0736084
0001b0 00 40 6d bd 00 20 60 3d 00 80 fc bd 00 80 8d bc
       -0.057922363 0.054718018 -0.123291016 -0.01727295
0001c0 00 e0 48 3d 00 e0 32 3c 00 c0 2d bc 00 20 8e bc
       0.049041748 0.010917664 -0.010604858 -0.017349243
0001d0 00 a0 70 3d 00 00 70 bc 00 20 31 bc 00 e0 86 bd
       0.058746338 -0.0146484375 -0.010810852 -0.06585693
0001e0 00 60 1e 3d 00 c0 73 3c 00 e0 25 bd 00 00 0f 3d
       0.03866577 0.014877319 -0.040496826 0.03491211
0001f0 00 00 0e 3e 00 a0 87 3a 00 60 ce bb 00 20 74 3d
       0.13867188 0.0010347366 -0.006298065 0.05960083
000200 00 60 97 bd 00 60 50 bd 00 80 4f 3c 00 20 56 be
       -0.073913574 -0.050872803 0.012664795 -0.20910645
000210 00 20 fd bd 00 a0 28 bd 00 80 40 3c 00 80 86 3c
       -0.12359619 -0.041168213 0.011749268 0.016418457
000220 00 c0 f1 bd 00 e0 5d bd 00 80 b3 3d 00 20 ab bc
       -0.11804199 -0.0541687 0.087646484 -0.020889282
000230 00 40 f6 3d 00 c0 ea 3d 00 e0 88 3a 00 20 15 bc
       0.12023926 0.11462402 0.0010442734 -0.009101868
000240 00 40 4d 3d 00 80 70 3e 00 e0 35 bd 00 a0 b3 3d
       0.050109863 0.23486328 -0.044403076 0.08770752
000250 00 20 c0 be 00 c0 17 be 00 80 76 bd 00 80 f8 bc
       -0.37524414 -0.14819336 -0.060180664 -0.030334473
000260 00 20 16 3d 00 00 4a 3d 00 60 ee bd 00 00 1e bd
       0.03665161 0.049316406 -0.11639404 -0.03857422
000270 00 e0 39 3d 00 20 0b 3e 00 40 cb bb 00 80 1c bd
       0.04537964 0.13586426 -0.0062026978 -0.038208008
000280 00 c0 86 bc 00 c0 62 bd 00 80 f4 3d 00 a0 11 bd
       -0.016448975 -0.055358887 0.119384766 -0.03555298
000290 00 80 27 bb 00 00 d3 bb 00 00 8a 3c 00 c0 a1 3b
       -0.0025558472 -0.006439209 0.016845703 0.0049362183
0002a0 00 80 b3 be 00 60 1b be 00 40 09 3d 00 c0 45 bd
       -0.35058594 -0.1517334 0.0335083 -0.04827881
0002b0 00 20 ae 3c 00 80 a3 3d 00 c0 93 bd 00 c0 59 bc
       0.021255493 0.079833984 -0.072143555 -0.013290405
0002c0 00 80 11 3e 00 a0 87 3d 00 60 a2 3d 00 40 c2 3c
       0.14208984 0.066223145 0.07928467 0.023712158
0002d0 00 c0 8c 3b 00 80 13 3d 00 60 09 bd 00 c0 cd bd
       0.004295349 0.036010742 -0.03353882 -0.10046387
0002e0 00 e0 a4 bd 00 40 e6 bd 00 a0 71 3d 00 40 a2 3c
       -0.08050537 -0.11242676 0.05899048 0.019805908
0002f0 00 c0 27 3d 00 80 2a bd 00 60 2a be 00 20 66 bd
       0.04095459 -0.041625977 -0.16638184 -0.05618286
000300 00 40 83 bd 00 00 f3 3d 00 60 1c be 00 80 b2 bd
       -0.064086914 0.118652344 -0.15270996 -0.0871582
000310 00 a0 03 3d 00 40 59 bd 00 20 6c 3d 00 00 b9 bd
       0.03213501 -0.05303955 0.057647705 -0.09033203
000320 00 60 0d 3d 00 80 b3 3c 00 e0 2f 3d 00 c0 34 3c
       0.03451538 0.021911621 0.042938232 0.0110321045
000330 00 40 f2 bc 00 20 86 bc 00 e0 0d 3e 00 a0 88 bd
       -0.029571533 -0.01637268 0.1385498 -0.066711426
000340 00 80 b1 bb 00 00 ec bd 00 e0 bb bc 00 c0 0e be
       -0.00541687 -0.115234375 -0.02293396 -0.1394043
000350 00 a0 61 bb 00 c0 17 3c 00 60 d8 3d 00 40 16 3e
       -0.0034427643 0.009262085 0.105651855 0.14672852
000360 00 a0 21 be 00 40 e5 3d 00 40 c7 3d 00 20 d5 3b
       -0.15783691 0.11193848 0.09729004 0.006504059
000370 00 00 4a bd 00 c0 b1 bc 00 60 3a be 00 20 91 3d
       -0.049316406 -0.021697998 -0.18200684 0.07086182
000380 00 a0 c8 3d 00 80 9b 3d 00 c0 38 bd 00 60 e1 bd
       0.097961426 0.075927734 -0.04510498 -0.11004639
000390 00 40 73 3d 00 20 54 bd 00 80 b1 bd 00 c0 fc bd
       0.059387207 -0.05178833 -0.08666992 -0.123413086
0003a0 00 60 0c bc 00 60 44 bd 00 60 c7 3c 00 c0 c6 bb
       -0.00856781 -0.047943115 0.024337769 -0.0060653687
0003b0 00 80 cd 3d 00 40 6f bc 00 80 23 be 00 c0 25 be
       0.1003418 -0.014602661 -0.15966797 -0.16186523
0003c0 00 20 bd 3d 00 60 c5 bc 00 60 23 bd 00 20 22 3d
       0.09234619 -0.024093628 -0.039886475 0.0395813
0003d0 00 e0 3b 3d 00 00 9c bd 00 a0 f6 3d 00 e0 88 3d
       0.04586792 -0.076171875 0.12042236 0.066833496
0003e0 00 c0 9a bc 00 40 d0 3d 00 80 89 bd 00 e0 87 bc
       -0.01889038 0.10168457 -0.06713867 -0.016586304
0003f0 00 a0 88 3d 00 80 4e 3d 00 80 ef 3c 00 a0 b0 bd
       0.066711426 0.05041504 0.02923584 -0.086242676
